mnist_cnn.pt (torch, 239823 bytes, 8 tensors)

weight f4 [64, 784]
-0.00930025 -0.021318303 -0.048525456 0.04629434 -0.13937956 -0.05834003 -0.2791966 -0.44107538
-0.30811438 -0.22711389 -0.42550352 -0.4070107 -0.40621853 0.13438961 0.28894278 -0.32641137
-0.5812923 -0.13472255 -0.15954754 -0.068200104 -0.33743355 -0.16813073 -0.06505233 -0.16477196
-0.09794996 0.011175434 0.03214035 -0.033705555 0.046236195 -0.04368828 -0.07759028 -0.10581735
-0.16022983 -0.13666852 -0.4317928 -0.41850746 -0.359869 -0.27736786 -0.5882873 -0.49783638
-0.56312746 -0.11119228 0.07311987 -0.1433184 -0.29745826 -0.38811874 -0.4899953 -0.33413625
-0.4752189 -0.357993 -0.36309624 -0.41102067 -0.38971183 -0.3184086 -0.34340093 -0.30156305
0.008821239 -0.03304851 -0.15225343 -0.08338206 -0.13985164 -0.32795545 -0.36605945 -0.23013078
-0.5101119 -0.30662006 -0.6337757 -0.4360996 -0.18205838 0.3182168 0.16496311 0.19745715
-0.051051866 -0.29880846 -0.4559361 -0.24516438 -0.45081747 -0.2789863 -0.21883217 -0.30780625
-0.293591 -0.18473014 -0.17900993 -0.092616834 0.0325226 0.010651078 -0.11276162 -0.18936601
-0.19517687 -0.37867507 -0.31025305 -0.41565534 -0.31920832 -0.27625927 -0.7355391 -0.5581446
-0.122491516 0.2519187 0.054296974 0.27328622 -0.06178374 -0.37794304 -0.40016952 -0.27402744
-0.253698 -0.3104509 -0.26708373 -0.16917412 -0.19309051 -0.1918754 -0.19602215 -0.024408577
-0.026578855 0.23030506 -0.112807766 -0.10524829 -0.22016269 -0.30688316 -0.29607633 -0.41588438
-0.37082723 -0.41714546 -0.73815876 -0.45587274 0.13278688 0.17478783 -0.061985105 0.136091
-0.038893834 -0.2527857 -0.34055445 -0.26589602 -0.33434552 -0.22973736 -0.28650028 -0.37171373
-0.2804888 -0.12669156 -0.14516748 0.0739438 0.05887757 0.21927616 -0.07392061 -0.028073333
-0.19169214 -0.23650914 -0.40949968 -0.5680258 -0.2860023 -0.5166506 -0.6221588 -0.40480503
0.21755584 0.05840859 -0.092225455 0.2964086 -0.07634337 -0.2592163 -0.24841231 -0.3538413
-0.41018486 -0.37676802 -0.23759739 -0.19265293 -0.29456118 -0.20299314 -0.14648834 0.18345696
0.018801635 0.111441895 -0.04110259 0.059699796 -0.21137598 -0.20568484 -0.5506285 -0.5071705
-0.22850552 -0.45747352 -0.5799192 -0.3774774 0.060600612 -0.016412456 -0.17679586 0.1689378
-0.14101736 -0.48812714 -0.14422132 -0.26530692 -0.39230442 -0.36964402 -0.3182471 -0.2943071
-0.24255224 -0.22996354 -0.1412371 0.066684864 0.15139022 -0.02443135 0.14503786 0.0055141426
-0.28782132 -0.23165177 -0.40858585 -0.4181508 -0.27302417 -0.3048968 -0.19921793 -0.28382134
-0.06750926 -0.40015924 -0.28027076 0.12466582 -0.08599929 -0.20655072 -0.045739092 -0.22925894
-0.4165619 -0.3565425 -0.4110301 -0.2942484 -0.2604014 -0.04867817 0.079875395 0.10395891
-0.13875495 0.14478444 0.23450293 -0.12172305 -0.35297492 -0.36113667 -0.45017254 -0.37722486
-0.16229731 -0.09873156 -0.21845199 -0.12667534 0.16704592 -0.49617103 -0.42427534 0.10336136
0.049477566 -0.1727808 -0.14650354 -0.029309321 -0.103900194 -0.37239298 -0.4259204 -0.22816269
-0.21114086 -0.058114097 0.013120695 0.16698322 -0.0740823 0.11379397 0.1989379 -0.09901673
00000000: 1360 18bc b9a3 aebc a1c2 46bd 229f 3d3d
00000010: 84b9 0ebe f5f5 6ebd dbf2 8ebe a2d4 e1be
00000020: 2bc1 9dbe 8b90 68be 99db d9be b563 d0be
00000030: e0fb cfbe 6e9d 093e 4ff0 933e 641f a7be
00000040: 92cf 14bf b5f4 09be 6e60 23be 7fac 8bbd
00000050: 17c4 acbe 762a 2cbe 283a 85bd fbb9 28be
00000060: fd99 c8bd 2b19 373c 9aa5 033d d60e 0abd
00000070: 2a62 3d3d 7bf2 32bd a7e7 9ebd c4b6 d8bd
00000080: 4a13 24be d5f2 0bbe f213 ddbe 9c46 d6be
00000090: c040 b8be 2903 8ebe ff99 16bf 69e4 febe
000000a0: 1f29 10bf c7b8 e3bd dfbf 953d 0fc2 12be
000000b0: 734c 98be 80b7 c6be aae0 fabe e813 abbe
000000c0: e44f f3be dc4a b7be c0e7 b9be 4d71 d2be
000000d0: 4f88 c7be 7406 a3be 3fd2 afbe 7966 9abe
000000e0: f586 103c e05d 07bd 53e8 1bbe 37c4 aabd
000000f0: 4535 0fbe c7e9 a7be 256c bbbe 67a7 6bbe
00000100: b296 02bf 4efd 9cbe 203f 22bf 7248 dfbe
00000110: 836d 3abe 50ed a23e 17ec 283e 3532 4a3e
00000120: c31b 51bd 6cfd 98be 7570 e9be 5f0c 7bbe
00000130: 8cd1 e6be 4bd7 8ebe 8a15 60be c898 9dbe
00000140: 8f51 96be e629 3dbe 614e 37be e5ad bdbd
00000150: 6b36 053d dc81 2e3c 90ef e6bd 2ae9 41be
00000160: 72dc 47be b3e1 c1be 7dd9 9ebe c7d0 d4be
00000170: 466f a3be db71 8dbe 4a4c 3cbf 91e2 0ebf
00000180: d5dc fabd 7dfb 803e 8166 5e3d 2cec 8b3e
00000190: f210 7dbd c081 c1be 05e3 ccbe 534d 8cbe
000001a0: b4e4 81be 6cf3 9ebe 33bf 88be fb3b 2dbe
000001b0: 85b9 45be fc7a 44be 08ba 48be 7ff4 c7bc
000001c0: e6bb d9bc 17d5 6b3e c207 e7bd 6a8c d7bd
000001d0: 5472 61be ca1f 9dbe 5197 97be ccee d4be
000001e0: 11dd bdbe 1794 d5be f9f7 3cbf 2768 e9be
000001f0: 49f9 073e 95fb 323e 18e4 7dbd 705b 0b3e
00000200: 244f 1fbd 216d 81be 275d aebe 8623 88be
00000210: 562f abbe 4540 6bbe 2ab0 92be 4351 bebe
00000220: 3a9c 8fbe 6fbb 01be c9a6 14be d96f 973d
00000230: 9b29 713d ee89 603e b063 97bd 0cfa e5bc
00000240: f24a 44be 742f 72be f1a9 d1be 246a 11bf
00000250: e56e 92be 3743 04bf cd45 1fbf 9b42 cfbe
00000260: f5c6 5e3e d83d 6f3d b3e0 bcbd dec2 973e
00000270: ea59 9cbd 00b8 84be cc5f 7ebe b02a b5be
00000280: c003 d2be bde7 c0be bb4c 73be cf46 45be
00000290: b9d0 96be 6fdd 4fbe 0a01 16be 24dc 3b3e
000002a0: e305 9a3c a63b e43d 305b 28bd c687 743d
000002b0: f272 58be 0c9f 52be fdf5 0cbf edd5 01bf
000002c0: 5afd 69be f839 eabe 9675 14bf b844 c1be
000002d0: 5938 783d 6a73 86bc f909 35be 08fe 2c3e
000002e0: db66 10be cdeb f9be c1ae 13be 4fd6 87be
000002f0: 20dc c8be fb41 bdbe 49f1 a2be 6caf 96be
00000300: 9d5f 78be 907b 6bbe 75a0 10be 1392 883d
00000310: 0a06 1b3e 4124 c8bc ce84 143e fbaf b43b
00000320: 515d 93be 1f36 6dbe 2a32 d1be dd17 d6be
00000330: d3c9 8bbe 6f1b 9cbe c9ff 4bbe 0851 91be
00000340: 4b42 8abd ace1 ccbe a67f 8fbe cb50 ff3d
00000350: 6520 b0bd 0882 53be ea58 3bbd dbc2 6abe
00000360: 9a47 d5be bd8c b6be 8a72 d2be baa7 96be
00000370: 5553 85be c362 47bd b695 a33d 69e8 d43d
00000380: c715 0ebe 5f42 143e 8921 703e ef49 f9bd
00000390: 21b9 b4be e8e6 b8be 047d e6be 9e23 c1be
000003a0: 4431 26be c633 cabd e1b1 5fbe 2eb7 01be
000003b0: 160e 2b3e 210a febe 9e3a d9be 1faf d33d
000003c0: fda8 4a3d 73ed 30be 0605 16be 1a1a f0bc
000003d0: a0c9 d4bd 4baa bebe 3d12 dabe 7ba3 69be
000003e0: 4f35 58be 0c09 6ebd 2ff8 563c a6fd 2a3e
000003f0: 76b8 97bd d00c e93d 60b6 4b3e 49c9 cabd

bias f4 [64]
0.18180178 0.10922747 -0.5938391 0.35146257 -0.18485798 1.0441648 0.72943354 -0.041867767
-0.12436615 0.11465533 -0.23074794 -0.063985325 -0.46751824 -0.075383395 0.7077416 -0.20068169
-0.40472144 -0.04183567 0.01337844 -0.05686326 0.25589857 0.19198984 -0.0042471886 0.019209644
0.16615084 -0.020978412 0.29880977 -0.036657233 -0.2372483 0.62424505 0.9571999 0.027236069
-0.6732919 -0.12600283 0.5608153 -0.3021771 0.2946006 0.3958543 -0.21951635 0.5302222
-0.02168157 0.010815222 0.041548144 -0.03350875 0.6981245 -0.7897718 0.29965737 -0.08022124
0.45236203 0.7629629 -0.022766197 0.7465981 -0.20154613 0.7338632 0.035284683 -0.033667084
0.5779174 -0.010379572 0.004809486 0.015065714 -0.04483504 0.0076974966 0.26802674 0.5525087
00000000: 3f2a 3a3e a7b2 df3d d705 18bf e7f2 b33e
00000010: 694b 3dbe 31a7 853f 28bc 3a3f 897d 2bbd
00000020: aeb3 febd 6ad0 ea3d 3049 6cbe bd0a 83bd
00000030: 8d5e efbe 9c62 9abd 8e2e 353f 807f 4dbe
00000040: a637 cfbe e15b 2bbd 3f31 5b3c 73e9 68bd
00000050: 2305 833e fc98 443e 002c 8bbb 8b5d 9d3c
00000060: 7223 2a3e ebda abbc 98fd 983e e525 16bd
00000070: 38f1 72be 86ce 1f3f 0d0b 753f 2d1e df3c
00000080: dc5c 2cbf e306 01be 9791 0f3f f5b6 9abe
00000090: e4d5 963e 6aad ca3e e5c8 60be a4bc 073f
000000a0: 8c9d b1bc 5432 313c 632e 2a3d 7940 09bd
000000b0: 4ab8 323f 7c2e 4abf b16c 993e 094b a4bd
000000c0: ff9b e73e 8951 433f 2d80 babc 0e21 3f3f
000000d0: 1c62 4ebe 75de 3b3f ac86 103d 7fe6 09bd
000000e0: 65f2 133f 150f 2abc e598 9d3b 2fd6 763c
000000f0: f2a4 37bd 483b fc3b cd3a 893e 3671 0d3f

weight f4 [64, 64]
-0.27132642 -0.32803378 0.052666556 -0.38340214 0.2806155 -0.35035086 -0.060009327 0.00844307
0.100859225 -0.05387552 0.54980016 -0.11676111 0.11200081 -0.062832534 0.1465865 0.44762614
0.01502526 0.05388263 -0.12012616 -0.37026566 0.08371317 -0.10256852 -0.08232567 -0.11992693
-0.05897762 -0.024835527 0.06268682 0.12122998 -0.16937803 0.2374927 0.16914731 -0.05787964
0.32247582 -0.13693842 -0.3063235 0.08959238 -0.11199581 -0.11939327 -0.17743328 -0.35158813
0.003848523 0.044751644 -0.71830064 -0.093345195 -0.05365759 -0.16863512 0.18768014 -0.28362796
0.15409744 -0.04180161 0.11178827 -0.35053134 -0.17904302 -0.08042933 -0.112859674 -0.053721674
-0.040869825 -0.09043151 0.064653724 0.044605374 0.048492003 -0.06533041 -0.33679324 0.24121967
-0.044208515 0.090044305 0.23670761 -0.27648115 0.1302944 0.21055901 -0.3009614 0.040281165
0.029022336 0.107672036 -0.65466535 -0.0029649946 -0.32904398 -0.014386897 -0.5150919 -0.12723768
0.2648993 -0.11748376 -0.087831184 0.03767333 -0.16506326 -0.0077128382 0.08239629 0.04532227
-0.15344593 -0.066271454 -0.15677118 -0.052575037 -0.07601742 0.19754198 0.03329289 -0.062715806
-0.24031213 -0.1811914 0.11803928 0.17026825 -0.09190812 0.0040093795 -0.24673939 -0.010015464
0.09272978 -0.079703346 -0.07326266 0.029546369 -0.014200088 -0.21126686 0.27603474 -0.010746405
0.22462516 0.48348033 -0.05256471 0.05630508 -0.48266414 0.33918297 -0.31418285 0.10285811
0.009902794 0.021252519 -0.07968874 0.19007449 0.066102296 -0.013840075 0.20076634 0.22000727
-0.025616234 -0.31432968 -0.15301217 -0.38726023 -0.030336123 0.32436106 -0.18540506 0.051066022
-0.20734476 0.09507166 0.085954696 -0.058442384 0.044501875 -0.113536805 -0.011627057 -0.075602084
-0.13046128 -0.06521092 0.054423533 -0.0025521505 -0.08484265 -0.0051237466 -0.039634094 -0.003013567
0.1458668 -0.02061224 0.20714791 -0.10053255 0.081418216 -0.6539982 0.32337067 -0.073123895
0.01704037 0.0047648298 -0.37911952 -0.07585783 -0.15562688 0.35153547 0.0068536545 0.2882228
-0.08518244 -0.09693834 -0.20724848 -0.018904738 -0.33137643 0.031929873 -0.18694296 0.17363045
0.29038522 -0.46423277 0.071864635 -0.0774791 -0.17338842 0.074984685 -0.15690106 0.09603314
-0.15248708 0.06221783 0.121931024 -0.017297689 -0.04302799 -0.105738655 -0.21260981 0.03729005
-0.50079215 -0.07510126 0.11052169 0.10510869 -0.0737511 0.24095844 0.40047696 0.009477602
-0.33104002 0.1429775 0.088672794 -0.051659886 0.039776463 -0.05313492 -0.02507162 0.3814867
-0.38877845 -0.030788867 -0.036838334 -0.35543495 -0.023336828 0.15302752 0.046093136 -0.062268935
0.11712926 -0.06975966 0.011326739 0.051464606 -0.10342528 0.24370895 -0.44519854 -0.03128772
0.050856307 0.33556485 0.13215849 0.31978136 0.22428347 0.14903708 -0.12863459 0.08332647
-0.101413995 -0.071770556 0.07445418 0.031214887 -0.12819394 -0.49917275 -0.0742223 0.06683719
-0.15910815 0.18279848 0.016934132 -0.36378092 -0.36086324 0.35569257 0.05298402 -0.037568886
0.30219612 -0.08525748 -0.099849544 -0.13006866 0.12970938 0.035455722 -0.0023096958 0.5018486
00000000: 4ceb 8abe 0bf4 a7be e3b8 573d 494d c4be
00000010: d6ac 8f3e 3061 b3be 57cc 75bd cd54 0a3c
00000020: 488f ce3d 94ac 5cbd b4bf 0c3f 7320 efbd
00000030: ae60 e53d 58ae 80bd c51a 163e 412f e53e
00000040: 822c 763c 08b4 5c3d b404 f6bd 7693 bdbe
00000050: cf71 ab3d 720f d2bd 5c9a a8bd 409c f5bd
00000060: 8492 71bd e073 cbbc f361 803d 6c47 f83d
00000070: 6f71 2dbe 4931 733e f434 2d3e 3413 6dbd
00000080: 8d1b a53e 9639 0cbe 6fd6 9cbe 367c b73d
00000090: 0f5e e5bd 7584 f4bd 12b1 35be 5c03 b4be
000000a0: 8037 7c3b 804d 373d 8de2 37bf c42b bfbd
000000b0: 10c8 5bbd afae 2cbe 392f 403e af37 91be
000000c0: b8cb 1d3e 2a38 2bbd 40f1 e43d d878 b3be
000000d0: 0e57 37be 22b8 a4bd f922 e7bd 420b 5cbd
000000e0: 1e67 27bd 2834 b9bd 2c69 843d 20b4 363d
000000f0: 8d9f 463d f3cb 85bd 2a70 acbe 4a02 773e
00000100: fd13 35bd 2669 b83d 7b63 723e f08e 8dbe
00000110: e56b 053e c89c 573e 9d17 9abe ddfd 243d
00000120: 40c0 ed3c 2883 dc3d 2698 27bf 5b50 42bb
00000130: 7478 a8be 05b7 6bbc 10dd 03bf 984a 02be
00000140: e2a0 873e 539b f0bd d6e0 b3bd 5a4f 1a3d
00000150: 5806 29be fabb fcbb 63bf a83d d8a3 393d
00000160: ee20 1dbe 54b9 87bd a088 20be ec58 57bd
00000170: 05af 9bbd 7248 4a3e 205e 083d 2571 80bd
00000180: 6214 76be 3d8a 39be 94be f13d cd5a 2e3e
00000190: 533a bcbd 1d61 833b 40a9 7cbe e717 24bc
000001a0: 1ce9 bd3d 823b a3bd bc0a 96bd 3a0b f23c
000001b0: 7ca7 68bc 5756 58be 6d54 8d3e b111 30bc
000001c0: 2304 663e bc8a f73e 184e 57bd 28a0 663d
000001d0: c11f f7be 64a9 ad3e 93dc a0be 46a7 d23d
000001e0: 543f 223c c319 ae3c da33 a3bd e3a2 423e
000001f0: a460 873d 7bc1 62bc b195 4d3e 9649 613e
00000200: 23d9 d1bc d2ef a0be 39af 1cbe f946 c6be
00000210: 7683 f8bc a712 a63e d3da 3dbe 9b2a 513d
00000220: 2f52 54be eeb4 c23d 0409 b03d 4861 6fbd
00000230: 9947 363d fc85 e8bd 697f 3ebc 44d5 9abd
00000240: a497 05be 4e8d 85bd 36eb 5e3d fb41 27bb
00000250: fcc1 adbd 1ae5 a7bb 5c57 22bd 447f 45bb
00000260: 1b5e 153e 00db a8bc 951e 543e 02e4 cdbd
00000270: 98be a63d 6d6c 27bf d790 a53e fbc1 95bd
00000280: 3f98 8b3c 4a22 9c3b f41b c2be 5a5b 9bbd
00000290: a75c 1fbe 75fc b33e 9f94 e03b f091 933e
000002a0: 2274 aebd 9c87 c6bd f238 54be 1cde 9abc
000002b0: 2caa a9be e6c8 023d fa6d 3fbe 2ecc 313e
000002c0: 5fad 943e ebaf edbe c42d 933d 5dad 9ebd
000002d0: bc8c 31be 9291 993d acaa 20be 06ad c43d
000002e0: 9325 1cbe 20d8 7e3d f9b6 f93d e2b3 8dbc
000002f0: 1e3e 30bd 828d d8bd 63b6 59be 74bd 183d
00000300: ea33 00bf b0ce 99bd 3259 e23d 3a43 d73d
00000310: d10a 97bd cfbd 763e 510b cd3e f247 1b3c
00000320: 147e a9be b268 123e 159a b53d 5199 53bd
00000330: a5ec 223d 00a4 59bd ff62 cdbc 3a52 c33e
00000340: f80d c7be ef38 fcbc cbe3 16bd 92fb b5be
00000350: e02c bfbc 3fb3 1c3e 28cc 3c3d b60d 7fbd
00000360: 77e1 ef3d 27de 8ebd c993 393c 8dcc 523d
00000370: a2d0 d3bd d78e 793e 10f1 e3be 8d27 00bd
00000380: b44e 503d 28cf ab3e 8e54 073e 62ba a33e
00000390: 91aa 653e 2d9d 183e c9b8 03be 11a7 aa3d
000003a0: 24b2 cfbd 71fc 92bd 6f7b 983d 5db6 ff3c
000003b0: 4645 03be 9293 ffbe dc01 98bd f0e1 883d
000003c0: 3fed 22be 862f 3b3e 73b9 8a3c 7e41 babe
000003d0: 11c3 b8be 561d b63e c605 593d d5e1 19bd
000003e0: 73b9 9a3e 799b aebd eb7d ccbd b830 05be
000003f0: 89d2 043e 053a 113d 445e 17bb 2679 003f

bias f4 [64]
-0.39873654 0.58635956 0.51684433 0.42410836 -0.02512389 0.18469577 -0.21250743 -0.10859841
0.48311394 0.5285821 0.34747314 -0.8637655 -0.078851305 0.53761566 0.0733332 0.3738239
-0.13287787 0.41682217 0.021548854 0.2174874 0.25005406 0.8564254 -0.20272739 0.49944338
0.16312537 -0.0036468362 -0.32107478 0.45180097 0.58062 0.15554813 0.35318428 0.2979838
0.6039228 0.75705194 -0.3735002 -0.3503822 0.5264522 0.019681865 0.039647 -0.3839676
-0.33247003 0.13275316 0.16946559 0.5626961 0.36700886 -0.43002778 0.3058958 0.3554627
0.2040961 0.080158435 -0.2896964 0.7318665 -0.44393787 -0.07434312 0.8232585 0.4296613
0.38981032 -0.0027718362 -0.3054574 -0.07952429 0.28867528 0.33711147 0.024067096 0.1574509
00000000: 3227 ccbe a91b 163f e94f 043f bb24 d93e
00000010: 9ed0 cdbc e320 3d3e 8c9b 59be d868 debd
00000020: b65a f73e 2851 073f 00e8 b13e bc1f 5dbf
00000030: cb7c a1bd 2ea1 093f b72f 963d d965 bf3e
00000040: 2311 08be b769 d53e 3987 b03c 04b5 5e3e
00000050: 1607 803e b23e 5b3f c597 4fbe 0bb7 ff3e
00000060: 560a 273e c2ff 6ebb ea63 a4be 7552 e73e
00000070: 83a3 143f 0248 1f3e 92d4 b43e 5591 983e
00000080: af9a 1a3f 28ce 413f 6b3b bfbe 4c65 b3be
00000090: 92c5 063f dd3b a13c e564 223d 6797 c4be
000000a0: 8339 aabe 72f0 073e 6388 2d3e da0c 103f
000000b0: 96e8 bb3e 9a2c dcbe 609e 9c3e 35ff b53e
000000c0: 91fe 503e 1b2a a43d 1653 94be 9a5b 3b3f
000000d0: d34b e3be 3541 98bd 12c1 523f 91fc db3e
000000e0: 3895 c73e b2a7 35bb ea64 9cbe a2dd a2bd
000000f0: 3fcd 933e e099 ac3e 5c28 c53c cf3a 213e

weight f4 [64, 64]
-0.023984276 -0.14731535 0.037818853 0.1254488 0.005598202 0.63803685 0.3683293 0.3946797
-0.0028615834 0.29729372 0.0961655 -0.3060274 -0.045902956 -0.09785851 0.30867735 0.360086
-0.005736639 0.032782026 0.31039664 -0.20036697 0.15290633 0.3829229 0.10712401 0.13827121
0.063745126 -0.10723456 0.29057357 0.07650188 0.19715106 0.15246658 0.110733956 0.1905288
-0.19472593 0.22801715 -0.44263116 -0.23583066 0.20230488 -0.25700438 -0.11589539 -0.06497784
-0.25576392 -0.12861246 -0.24709149 0.03165447 0.2940803 0.04010989 0.089877345 -0.103837885
-0.07924286 -0.20660275 -0.27997413 0.12497717 0.22800285 0.17246099 0.3683159 -0.087998345
-0.6462101 -0.3112169 -0.27399665 -0.0042467215 0.024956621 -0.09678764 0.12556177 0.14835998
0.06806889 0.16165791 -0.14082786 0.25686824 0.3195559 0.044160806 0.12207832 0.33279026
0.046557833 -0.4030412 0.089459576 -0.09015718 0.09948187 0.08649897 0.07900466 0.25086263
0.002345045 -0.18546353 0.2219319 -0.07971681 0.23429972 -0.16385502 0.19039066 0.26896054
0.36895856 -0.2872566 0.2889425 -0.0069992687 0.29281723 -0.4874457 0.20916626 -0.26137084
-0.3297785 0.26651937 -0.40554163 -0.1907513 0.33031598 -0.0736557 -0.0050695622 -0.15758236
-0.020341514 -0.084534645 -0.16835628 -0.15944321 0.022710564 0.0668811 0.23596247 0.045315273
0.09886343 0.071508855 -0.034589402 0.036049034 -0.10976752 -0.011166911 -0.31863743 0.0064214873
-0.34916136 -0.022345064 0.22963585 -0.14477779 -0.23801333 0.061838534 0.083326764 0.039483692
-0.3047816 0.0408538 0.14897315 -0.13526677 -0.38825575 -0.5394963 -0.55323786 0.4018755
0.037711002 0.076624185 -0.0344 -0.010447847 0.045787595 0.13764283 -0.0071702683 -0.2478214
0.027546702 0.13499098 0.011690067 0.14666237 0.26369873 -0.022013744 0.22752891 -0.37560743
-0.3227384 0.11006341 0.019189361 -0.2982194 0.07493212 -0.1443852 -0.3491086 0.22861996
0.16436237 0.13695171 -0.0056434465 0.03820139 -0.56571144 -0.18167801 0.03239665 -0.44019616
0.33281264 -0.1158469 0.0660978 0.12806197 0.08181559 -0.1255026 -0.1336495 0.13890475
-0.29672432 -0.2645606 -0.19808511 0.07959379 -0.023478068 -0.00042366594 0.24877463 -0.16126576
0.089643136 -0.24184926 -0.22314656 -0.0032339473 -0.1005759 -0.018303558 -9.186144e-05 -0.53926116
-0.25650102 0.31883028 -0.26889393 -0.18781106 0.011979536 0.42824104 -0.06938899 0.33869693
0.06536241 0.056042757 -0.17431986 -0.2067353 0.1250828 -0.08278319 -0.22300544 -0.029355384
-0.2962625 0.038004074 0.23457047 -0.14179549 -0.10694193 0.07815909 0.23819467 0.27025622
0.13373864 0.032463107 0.06344161 0.15159446 -0.046688296 0.16953884 0.18075095 -0.015955541
0.16071746 0.04059436 -0.25771496 -0.3656053 0.21576841 0.035902943 0.09022184 -0.14966176
-0.40707198 0.059792336 -0.17149055 -0.11357349 0.021974819 -0.123010986 -0.18453008 -0.10843295
-0.04771548 -0.043808736 -0.020717017 0.05977393 0.56861633 -0.13168643 -0.2645239 0.03786805
-0.22945592 -0.0749952 -0.37303114 -0.22750555 -0.05979509 -0.059371073 0.14029951 0.006899659
00000000: ac7a c4bc d6d9 16be f1e7 1a3d a675 003e
00000010: 1f71 b73b 6256 233f a895 bc3e 7513 ca3e
00000020: 6789 3bbb e236 983e 6bf2 c43d a0af 9cbe
00000030: bd04 3cbd 0b6a c8bd f50a 9e3e 315d b83e
00000040: 6afa bbbb 7246 063d 4fec 9e3e 002d 4dbe
00000050: 7a93 1c3e 780e c43e d563 db3d f896 0d3e
00000060: ce8c 823d cb9d dbbd 0fc6 943e 05ad 9c3d
00000070: f8e1 493e 3320 1c3e 7cc8 e23d fb19 433e
00000080: 3c66 47be 547d 693e 8da0 e2be 987d 71be
00000090: 0329 4f3e 1496 83be 905a edbd 1a13 85bd
000000a0: 7df3 82be fcb2 03be 8d05 7dbe 1ea8 013d
000000b0: b191 963e 454a 243d 9d11 b83d f5a8 d4bd
000000c0: 154a a2bd ac8f 53be c558 8fbe 08f4 ff3d
000000d0: 9479 693e 9d99 303e e793 bc3e 7a38 b4bd
000000e0: 066e 25bf d257 9fbe 4a49 8cbe 1528 8bbb
000000f0: d471 cc3c 9938 c6bd 4493 003e aeeb 173e
00000100: b467 8b3d a789 253e 2e35 10be 3c84 833e
00000110: d59c a33e f6e1 343d 3304 fa3d 7c63 aa3e
00000120: 6db3 3e3d 6b5b cebe 9536 b73d 54a4 b8bd
00000130: 27bd cb3d 5f26 b13d 32cd a13d 1171 803e
00000140: 54af 193b 27ea 3dbe 1e42 633e 9142 a3bd
00000150: 44ec 6f3e 9cc9 27be c5f5 423e 32b5 893e
00000160: 23e8 bc3e 4c13 93be 45f0 933e 1f5a e5bb
00000170: 24ec 953e 7c92 f9be ae2f 563e 66d2 85be
00000180: bad8 a8be 3a75 883e 27a3 cfbe 4f54 43be
00000190: 2d1f a93e cdd8 96bd 921e a6bb 455d 21be
000001a0: 3fa3 a6bc 8020 adbd 9765 2cbe 1545 23be
000001b0: 810b ba3c f5f8 883d 25a0 713e 829c 393d
000001c0: e978 ca3d 3c73 923d 9ead 0dbd 27a8 133d
000001d0: cbcd e0bd 6bf5 36bc 7224 a3be 576b d23b
000001e0: 47c5 b2be ff0c b7bc a925 6b3e a140 14be
000001f0: c4b9 73be 674a 7d3d 39a7 aa3d a7b9 213d
00000200: 550c 9cbe 5056 273d 6b8c 183e 5f83 0abe
00000210: 75c9 c6be 6e1c 0abf ffa0 0dbf a0c2 cd3e
00000220: da76 1a3d 24ed 9c3d 04e7 0cbd 722d 2bbc
00000230: c68b 3b3d 3ef2 0c3e 92f4 eabb e5c4 7dbe
00000240: 9fa9 e13c 133b 0a3e b287 3f3c a92e 163e
00000250: 8503 873e 2b56 b4bc 57fd 683e 9e4f c0be
00000260: f83d a5be ed68 e13d 0233 9d3c 37b0 98be
00000270: 0376 993d b7d9 13be 5dbe b2be 5a1b 6a3e
00000280: 9c4e 283e 123d 0c3e a9ec b8bb 1079 1c3d
00000290: 77d2 10bf cd09 3abe 5ab2 043d 6461 e1be
000002a0: 6b66 aa3e 2441 edbd 495e 873d ad22 033e
000002b0: ef8e a73d c183 00be 6adb 08be 0c3d 0e3e
000002c0: 40ec 97be 7d74 87be d3d6 4abe 1202 a33d
000002d0: 1455 c0bc 7b1f deb9 c7be 7e3e da22 25be
000002e0: d296 b73d 55a7 77be 8880 64be a2f0 53bb
000002f0: bdfa cdbd 58f1 95bc bca5 c0b8 050d 0abf
00000300: 1a54 83be b93d a33e 77ac 89be 8b51 40be
00000310: d145 443c 6942 db3e d11b 8ebd af69 ad3e
00000320: badc 853d 178d 653d e880 32be 6bb2 53be
00000330: b515 003e 3c8a a9bd 8a5b 64be b47a f0bc
00000340: b8af 97be 29aa 1b3d 3e33 703e d632 11be
00000350: 5f04 dbbd df11 a03d 4ee9 733e 065f 8a3e
00000360: c8f2 083e 09f8 043d aded 813d 943b 1b3e
00000370: 3a3c 3fbd 979b 2d3e c716 393e 32b5 82bc
00000380: 1e93 243e 4646 263d 37f3 83be 9e30 bbbe
00000390: 65f2 5c3e f70e 133d 3ac6 b83d ef40 19be
000003a0: bd6b d0be cfe8 743d 389b 2fbe 3899 e8bd
000003b0: 8904 b43c 2fed fbbd 74f5 3cbe 1812 debd
000003c0: 4f71 43bd ca70 33bd bcb6 a9bc 82d5 743d
000003d0: d790 113f cfd8 06be ad6f 87be 871b 1b3d
000003e0: 7ef6 6abe 1597 99bd f0fd bebe 37f7 68be
000003f0: b2eb 74bd 152f 73bd adaa 0f3e 8916 e23b

bias f4 [64]
0.71512896 0.47884095 0.08252491 0.1579862 -0.24842963 0.3963127 -0.06074346 -0.3837763
-0.3877867 0.69160944 0.036843512 -0.11459658 0.33387282 -0.1779119 -0.061799087 -0.32100803
0.15364338 0.33667734 -0.43636787 0.4117011 0.23095943 -0.13493542 0.57153887 0.06464083
-0.25399816 0.3992577 0.34961623 0.67922807 0.31895095 0.004820458 -0.6214917 0.8748256
-0.26884788 0.16166133 0.34750307 0.7034971 -0.13969095 -0.055307265 -0.09380387 0.11431464
0.469797 0.40026155 0.23596428 0.6181391 0.3192894 -0.22261438 -0.33561274 0.35964274
-0.2905894 0.38425145 -0.2694609 0.6592565 0.25909173 0.3863675 -0.6250715 0.5651143
-0.2245011 0.49147576 0.4007942 -0.18599243 0.55847895 -0.19232702 -0.35115388 -0.062155563
00000000: b112 373f a42a f53e d202 a93d 22c7 213e
00000010: 5664 7ebe 80e9 ca3e 22ce 78bd 547e c4be
00000020: fa8b c6be 510d 313f 39e9 163d 9db1 eabd
00000030: 61f1 aa3e 8a2e 36be 0a21 7dbd 2a5b a4be
00000040: b154 1d3e f960 ac3e 9c6b dfbe 7dca d23e
00000050: a180 6c3e 832c 0abe 5f50 123f 6962 843d
00000060: 0c0c 82be 816b cc3e e600 b33e e4e1 2d3f
00000070: 8a4d a33e eff4 9d3b 141a 1fbf 92f4 5f3f
00000080: 6ea6 89be 8c8a 253e eceb b13e 6318 343f
00000090: 250b 0fbe df89 62bd 3e1c c0bd cb1d ea3d
000000a0: 3b89 f03e 15ef cc3e 9fa0 713e 5d3e 1e3f
000000b0: e679 a33e 06f5 63be 6fd5 abbe 1823 b83e
000000c0: 22c8 94be 9bbc c43e c7f6 89be 09c5 283f
000000d0: aca7 843e f6d1 c53e b004 20bf 55ab 103f
000000e0: 9ee3 65be b6a2 fb3e e634 cd3e cd74 3ebe
000000f0: 7af8 0e3f 60f1 44be 71ca b3be d596 7ebd

weight f4 [10, 64]
-0.16460294 0.123012476 0.1607845 -0.36904547 -0.025821213 0.22617275 -0.9378852 -0.19760181
0.096162185 0.012751653 0.015532882 -0.119920306 0.0019433569 -0.45298126 -0.0027145322 0.070136145
-0.17528161 -0.17504019 -0.7978968 -0.4174628 0.1338196 -0.48956865 -0.13573484 -0.18366492
-0.49062186 -1.0989946 0.13557369 0.025957705 -0.32505253 0.05304403 -1.7899933 0.06770107
-0.47075066 -0.09605855 -0.093677014 -0.13655862 -0.19984704 0.026999723 0.122347884 -0.05016269
-0.027344435 -0.084276386 -0.35573173 -0.47328353 -0.0446153 0.009871926 -0.123030886 -0.5130739
-0.3949612 -0.17396653 -0.20334716 -0.38514167 -0.4801684 -0.5553516 -0.34142852 0.05155291
-1.4462973 -0.87287223 -0.4975037 -0.0004408715 -0.078051955 -1.1389135 -0.43638957 -0.08280287
-0.7140347 -0.455037 -1.3107402 -1.4981661 -0.12541576 -0.047026183 -0.582569 0.15002756
0.014524564 -0.035854753 -0.12189597 -0.7743314 -0.5149109 -0.89937156 -0.18460812 -0.8359731
0.13231783 0.14556538 -0.7361481 -0.19500773 0.046211455 -0.17737679 -0.84194714 0.1058929
-0.39987022 -0.18540819 -0.25010195 -0.5819063 -0.08656389 -0.89451957 -2.5394578 -0.71842206
0.16623291 -0.24086711 -0.15861525 -0.27526873 -0.7524574 -0.4188996 -0.10237746 -0.034661297
-0.42549527 0.08365191 -0.6665981 -0.17672813 -0.9114176 -0.16190611 -0.92231804 -0.7808742
-0.2848593 -0.7924156 0.061049547 0.0985112 -0.050214037 -0.78120625 -0.2820084 0.14098671
-1.3159904 -0.24739091 -0.34317094 -0.14344761 0.13019958 -1.2935824 -0.37483364 0.079305686
-0.88126993 -0.27352035 0.18398419 -0.064662136 -0.0022894612 -0.19263133 -0.37197673 -0.3048269
-0.14734548 0.05762648 -0.15579523 0.17489529 -0.52335984 -0.5041912 0.08772366 0.14449286
-0.10574383 0.04005064 -0.24219087 -1.4205009 -0.38189816 -0.29850224 0.01826391 0.107186705
-0.53148454 -1.2530042 0.07514692 -0.022912959 -0.053774554 0.023750003 -1.3618283 0.15657452
-0.35065877 -0.43398744 -0.003859036 -0.15756916 -0.027519858 -0.35303688 0.07989748 -0.17818643
0.12354443 -0.06373725 0.17735793 -0.074581586 0.09490135 -0.05070125 -0.6223182 -0.05143177
-0.96279407 0.09566039 -0.22996505 -0.23531273 -0.77719134 -0.008280291 -0.4640961 -0.06013694
-0.89124286 0.022800101 -0.3789775 0.031516626 0.12393533 -0.81067187 -0.383405 -0.331266
-0.35640204 -0.32079166 -0.12231758 -0.27846354 0.011483396 0.10482354 -1.429071 -0.06617204
-0.1960258 0.22789653 -0.026146492 -0.754195 -0.6061693 -1.1376365 -0.6103463 -0.40554398
-0.009745413 0.009021938 -0.5827382 -0.31076795 -0.02857497 -0.10996 -1.3181218 -0.12892781
-0.2865045 -0.38739282 -0.060324904 -0.73951906 0.04339938 -0.14080757 -1.5120128 -0.22430445
-0.45389476 -0.7696021 0.12539412 0.22963761 -0.07544579 -0.5247984 0.076429375 -0.10578688
-0.34638777 0.16495559 -0.063555606 -0.051714808 0.09795579 -0.16599283 -0.7972977 -0.12730692
-0.7884209 0.028094934 0.076555006 0.19251956 -0.18034458 -0.24254516 -0.42478952 0.106279306
-0.85265183 -0.7768092 -0.06258209 -0.020614415 -0.35230196 -1.0269814 0.0005302652 -0.022947181
00000000: ac8d 28be f7ed fb3d b1a4 243e 87f3 bcbe
00000010: 0287 d3bc d499 673e 3f19 70bf 2158 4abe
00000020: aef0 c43d 4fec 503c a17d 7e3c c798 f5bd
00000030: 3db8 fe3a 29ed e7be 4be6 31bb 8aa3 8f3d
00000040: 067d 33be bc3d 33be f742 4cbf afbd d5be
00000050: 0108 093e bea8 fabe 13fe 0abe a812 3cbe
00000060: ca32 fbbe dbab 8cbf d4d3 0a3e 41a5 d43c
00000070: 496d a6be b244 593d 801e e5bf dca6 8a3d
00000080: 3b06 f1be 58ba c4bd bcd9 bfbd 06d6 0bbe
00000090: b4a4 4cbe 862e dd3c 8791 fa3d 6577 4dbd
000000a0: 7001 e0bc 1999 acbd 7822 b6be 3852 f2be
000000b0: 88be 36bd dcbd 213c 9ef7 fbbd d058 03bf
000000c0: 5b38 cabe 4824 32be 3d3a 50be 4a31 c5be
000000d0: a2d8 f5be 862b 0ebf b8cf aebe 2529 533d
000000e0: 4520 b9bf 8e74 5fbf ceb8 febe c524 e7b9
000000f0: b4d9 9fbd ebc7 91bf 746e dfbe 8d94 a9bd
00000100: faca 36bf 9cfa e8be 56c6 a7bf e8c3 bfbf
00000110: fd6c 00be 879e 40bd 3e23 15bf d3a0 193e
00000120: 70f8 6d3c 6fdc 12bd 98a4 f9bd 953a 46bf
00000130: 33d1 03bf 373d 66bf e909 3dbe 5502 56bf
00000140: 537e 073e 170f 153e 3474 3cbf 1bb0 47be
00000150: 3948 3d3d 43a2 35be d989 57bf 60de d83d
00000160: cabb ccbe a5db 3dbe 5d0d 80be d0f7 14bf
00000170: 6948 b1bd 3cff 64bf 7a86 22c0 82ea 37bf
00000180: f638 2a3e dea5 76be 096c 22be 06f0 8cbe
00000190: 0ca1 40bf 027a d6be 46ab d1bd 01f9 0dbd
000001a0: 84da d9be b151 ab3d 2ca6 2abf 38f8 34be
000001b0: aa52 69bf b7ca 25be 091d 6cbf 5fe7 47bf
000001c0: 14d9 91be c0db 4abf 170f 7a3d 3dc0 c93d
000001d0: 3cad 4dbd 22fd 47bf 6863 90be d25e 103e
000001e0: 6072 a8bf 0b54 7dbe 1ab4 afbe eee3 12be
000001f0: 0a53 053e 1c94 a5bf 32ea bfbe 056b a23d
00000200: e89a 61bf dc0a 8cbe 5a66 3c3e 956d 84bd
00000210: c90a 16bb 2641 45be bc73 bebe 4512 9cbe
00000220: bce1 16be be09 6c3d c988 1fbe c017 333e
00000230: e9fa 05bf ad12 01bf 76a8 b33d f0f5 133e
00000240: 3990 d8bd 240c 243d e200 78be f9d2 b5bf
00000250: 2888 c3be 49d5 98be 329e 953c b484 db3d
00000260: 5f0f 08bf 7162 a0bf a1e6 993d f5b3 bbbc
00000270: b542 5cbd 5e8f c23c 6450 aebf 1255 203e
00000280: 8c89 b3be 9a33 debe e1e7 7cbb cf59 21be
00000290: 5371 e1bc 40c1 b4be 4aa1 a33d 8176 36be
000002a0: dd04 fd3d ad88 82bd 519d 353e 3bbe 98bd
000002b0: a45b c23d 1dac 4fbd 3f50 1fbf 1faa 52bd
000002c0: ac79 76bf 98e9 c33d f57b 6bbe d2f5 70be
000002d0: 03f6 46bf 0faa 07bc 019e edbe 2752 76bd
000002e0: 7e28 64bf 47c7 ba3c 5709 c2be 9417 013d
000002f0: ced1 fd3d 3188 4fbf a94d c4be b29b a9be
00000300: 547a b6be ce3e a4be a481 fabd c692 8ebe
00000310: db24 3c3c b9ad d63d cceb b6bf 3585 87bd
00000320: fdba 48be b55d 693e 2b31 d6bc ec12 41bf
00000330: e92d 1bbf 139e 91bf a83f 1cbf 76a3 cfbe
00000340: 3aab 1fbc c0d0 133c 552e 15bf fa1c 9fbe
00000350: 0e16 eabc b532 e1bd 37b8 a8bf a705 04be
00000360: b8b0 92be 5a58 c6be 3f17 77bd 1f51 3dbf
00000370: 8cc3 313d dc2f 10be a389 c1bf 11b0 65be
00000380: e564 e8be a504 45bf 5167 003e 1f26 6b3e
00000390: 5383 9abd 3059 06bf 0187 9c3d cba6 d8bd
000003a0: bd59 b1be 1eea 283e 7129 82bd e8d2 53bd
000003b0: 0c9d c83d 06fa 29be b41b 4cbf bf5c 02be
000003c0: f4d5 49bf 5927 e63c dfc8 9c3d d923 453e
000003d0: 40ac 38be c25d 78be 037e d9be f7a8 d93d
000003e0: 6447 5abf f8dc 46bf 0a2b 80bd 90df a8bc
000003f0: ec60 b4be 2074 83bf 7f01 0b3a bafb bbbc

bias f4 [10]
-0.17051777 -0.22051091 0.25146386 0.19389078 -0.3795031 0.07581826 0.33490357 0.22800985
0.044469003 -0.6843938
00000000: 369c 2ebe 9dcd 61be dfbf 803e 4e8b 463e
00000010: 3b4e c2be 9b46 9b3d 7b78 ab3e 6a7b 693e
00000020: 2125 363d 6f34 2fbf
